ST Edge AI Core v2.2.0-20266 2adc00962
Created date          : 2026-05-19 08:24:39
Parameters            : validate --model export/actor_joint_12d_c860k.onnx --target stm32 --mode host --valinput export/actor_joint_12d_c860k_valinput.csv --valoutput export/actor_joint_12d_c860k_valoutput.csv --workspace export/stedgeai_ws_12d_c860k --output export/stedgeai_out_12d_c860k

Exec/report summary (validate)
-----------------------------------------------------------------------------------------------
model file         :   /home/lotfikh/rl_pid_tuner/export/actor_joint_12d_c860k.onnx            
type               :   onnx                                                                    
c_name             :   network                                                                 
compression        :   lossless                                                                
options            :   allocate-inputs, allocate-outputs                                       
optimization       :   balanced                                                                
target/series      :   stm32                                                                   
workspace dir      :   /home/lotfikh/rl_pid_tuner/export/stedgeai_ws_12d_c860k                 
output dir         :   /home/lotfikh/rl_pid_tuner/export/stedgeai_out_12d_c860k                
vinput files       :   /home/lotfikh/rl_pid_tuner/export/actor_joint_12d_c860k_valinput.csv    
voutput files      :   /home/lotfikh/rl_pid_tuner/export/actor_joint_12d_c860k_valoutput.csv   
model_fmt          :   float                                                                   
model_name         :   actor_joint_12d_c860k                                                   
model_hash         :   0x51b56419599eeb7c235f1e0702543b56                                      
params #           :   5,187 items (20.26 KiB)                                                 
-----------------------------------------------------------------------------------------------
input 1/1          :   'obs', f32(1x12), 48 Bytes, activations                                 
output 1/1         :   'action', f32(1x3), 12 Bytes, activations                               
macc               :   5,345                                                                   
weights (ro)       :   20,748 B (20.26 KiB) (1 segment)                                        
activations (rw)   :   512 B (512 B) (1 segment) *                                             
ram (total)        :   512 B (512 B) = 512 + 0 + 0                                             
-----------------------------------------------------------------------------------------------
(*) 'input'/'output' buffers are allocated in the activations buffer

Model name - actor_joint_12d_c860k
------ --------------------------------------- ------------- -------------- ------- ------------------ --- --------------- ----------------- --------------------- 
m_id   layer (type,original)                   oshape        param/size        macc       connected to   | c_size          c_macc            c_type                
------ --------------------------------------- ------------- -------------- ------- ------------------ --- --------------- ----------------- --------------------- 
1      node_0.weight (Placeholder, Gemm)       [b:64,c:12]   768/3,072                                   | +256(+8.3%)     +832(+100.0%)     Dense_[0]             
       node_0.bias (Placeholder, Gemm)         [b:64]        64/256                                      | -256(-100.0%)                     
------ --------------------------------------- ------------- -------------- ------- ------------------ --- --------------- ----------------- --------------------- 
3      node_2.weight (Placeholder, Gemm)       [b:64,c:64]   4,096/16,384                                | +256(+1.6%)     +4,160(+100.0%)   Dense_[2]             
       node_2.bias (Placeholder, Gemm)         [b:64]        64/256                                      | -256(-100.0%)                     
------ --------------------------------------- ------------- -------------- ------- ------------------ --- --------------- ----------------- --------------------- 
5      node_4.weight (Placeholder, Gemm)       [b:3,c:64]    192/768                                     | +12(+1.6%)      +195(+100.0%)     Dense_[4]             
       node_4.bias (Placeholder, Gemm)         [b:3]         3/12                                        | -12(-100.0%)                      
------ --------------------------------------- ------------- -------------- ------- ------------------ --- --------------- ----------------- --------------------- 
0      obs (Input, )                           [b:1,c:12]                                                |                                   
------ --------------------------------------- ------------- -------------- ------- ------------------ --- --------------- ----------------- --------------------- 
1      _0_Gemm_output_0 (Gemm, Gemm)           [b:1,c:64]                       832                obs   |                 -832(-100.0%)     
                                                                                         node_0.weight   | 
                                                                                           node_0.bias   | 
------ --------------------------------------- ------------- -------------- ------- ------------------ --- --------------- ----------------- --------------------- 
2      _1_Relu_output_0 (Nonlinearity, Relu)   [b:1,c:64]                        64   _0_Gemm_output_0   |                                   Nonlinearity_[1]      
------ --------------------------------------- ------------- -------------- ------- ------------------ --- --------------- ----------------- --------------------- 
3      _2_Gemm_output_0 (Gemm, Gemm)           [b:1,c:64]                     4,160   _1_Relu_output_0   |                 -4,160(-100.0%)   
                                                                                         node_2.weight   | 
                                                                                           node_2.bias   | 
------ --------------------------------------- ------------- -------------- ------- ------------------ --- --------------- ----------------- --------------------- 
4      _3_Relu_output_0 (Nonlinearity, Relu)   [b:1,c:64]                        64   _2_Gemm_output_0   |                                   Nonlinearity_[3]      
------ --------------------------------------- ------------- -------------- ------- ------------------ --- --------------- ----------------- --------------------- 
5      _4_Gemm_output_0 (Gemm, Gemm)           [b:1,c:3]                        195   _3_Relu_output_0   |                 -195(-100.0%)     
                                                                                         node_4.weight   | 
                                                                                           node_4.bias   | 
------ --------------------------------------- ------------- -------------- ------- ------------------ --- --------------- ----------------- --------------------- 
6      action (Nonlinearity, Tanh)             [b:1,c:3]                         30   _4_Gemm_output_0   |                                   Nonlinearity_[o][5]   
------ --------------------------------------- ------------- -------------- ------- ------------------ --- --------------- ----------------- --------------------- 
model/c-model: macc=5,345/5,345  weights=20,748/20,748  activations=--/512 io=--/0



Generated C-graph summary
------------------------------------------------------------------------------------------------------------------------
model name            : actor_joint_12d_c860k
c-name                : network
c-node #              : 6
c-array #             : 13
activations size      : 512 (1 segment)
weights size          : 20748 (1 segment)
macc                  : 5345
inputs                : ['obs_output']
outputs               : ['action_output']

C-Arrays (13)
------ -------------------------- ------------ ------------------------- ------------- --------- 
c_id   name (*_array)             item/size    domain/mem-pool           c-type        comment   
------ -------------------------- ------------ ------------------------- ------------- --------- 
0      _0_Gemm_output_0_bias      64/256       weights/weights           const float             
1      _0_Gemm_output_0_output    64/256       activations/**default**   float                   
2      _0_Gemm_output_0_weights   768/3072     weights/weights           const float             
3      _1_Relu_output_0_output    64/256       activations/**default**   float                   
4      _2_Gemm_output_0_bias      64/256       weights/weights           const float             
5      _2_Gemm_output_0_output    64/256       activations/**default**   float                   
6      _2_Gemm_output_0_weights   4096/16384   weights/weights           const float             
7      _3_Relu_output_0_output    64/256       activations/**default**   float                   
8      _4_Gemm_output_0_bias      3/12         weights/weights           const float             
9      _4_Gemm_output_0_output    3/12         activations/**default**   float                   
10     _4_Gemm_output_0_weights   192/768      weights/weights           const float             
11     action_output              3/12         activations/**default**   float         /output   
12     obs_output                 12/48        activations/**default**   float         /input    
------ -------------------------- ------------ ------------------------- ------------- --------- 

C-Layers (6)
------ ------------------ ---- --------------- ------ ------- ----------------------------- ------------------ 
c_id   name (*_layer)     id   layer_type      macc   rom     tensors                       shape (array id)   
------ ------------------ ---- --------------- ------ ------- ----------------------------- ------------------ 
0      _0_Gemm_output_0   1    Dense           832    3328    I: obs_output                 f32(1x12) (12)     
                                                              W: _0_Gemm_output_0_weights   f32(64x12) (2)     
                                                              W: _0_Gemm_output_0_bias      f32(64) (0)        
                                                              O: _0_Gemm_output_0_output    f32(1x64) (1)      
------ ------------------ ---- --------------- ------ ------- ----------------------------- ------------------ 
1      _1_Relu_output_0   2    Nonlinearity    64     0       I: _0_Gemm_output_0_output    f32(1x64) (1)      
                                                              O: _1_Relu_output_0_output    f32(1x64) (3)      
------ ------------------ ---- --------------- ------ ------- ----------------------------- ------------------ 
2      _2_Gemm_output_0   3    Dense           4160   16640   I: _1_Relu_output_0_output    f32(1x64) (3)      
                                                              W: _2_Gemm_output_0_weights   f32(64x64) (6)     
                                                              W: _2_Gemm_output_0_bias      f32(64) (4)        
                                                              O: _2_Gemm_output_0_output    f32(1x64) (5)      
------ ------------------ ---- --------------- ------ ------- ----------------------------- ------------------ 
3      _3_Relu_output_0   4    Nonlinearity    64     0       I: _2_Gemm_output_0_output    f32(1x64) (5)      
                                                              O: _3_Relu_output_0_output    f32(1x64) (7)      
------ ------------------ ---- --------------- ------ ------- ----------------------------- ------------------ 
4      _4_Gemm_output_0   5    Dense           195    780     I: _3_Relu_output_0_output    f32(1x64) (7)      
                                                              W: _4_Gemm_output_0_weights   f32(3x64) (10)     
                                                              W: _4_Gemm_output_0_bias      f32(3) (8)         
                                                              O: _4_Gemm_output_0_output    f32(1x3) (9)       
------ ------------------ ---- --------------- ------ ------- ----------------------------- ------------------ 
5      action             6    Nonlinearity    30     0       I: _4_Gemm_output_0_output    f32(1x3) (9)       
                                                              O: action_output              f32(1x3) (11)      
------ ------------------ ---- --------------- ------ ------- ----------------------------- ------------------ 
 
Setting validation data...
 loading file: /home/lotfikh/rl_pid_tuner/export/actor_joint_12d_c860k_valinput.csv
   samples are reshaped: (9, 12) -> (9, 1, 1, 12)
 loading file: /home/lotfikh/rl_pid_tuner/export/actor_joint_12d_c860k_valoutput.csv
   samples are reshaped: (9, 3) -> (9, 1, 1, 3)
   I[1]: (9, 1, 1, 12)/float32, min/max=[-6.500000, 5.200000], mean/std=[0.048271, 1.057062]
   O[1]: (9, 1, 1, 3)/float32, min/max=[-1.000000, 1.000000], mean/std=[-0.202109, 0.792289]
 
Running the ST.AI c-model (AI RUNNER)...(name=network, mode=HOST)

 DLL Driver v2.0 - Direct Python binding (/home/lotfikh/rl_pid_tuner/export/stedgeai_ws_12d_c860k/inspector_network/workspace/lib/libai_network.so) ['network']
  
  Summary 'network' - ['network']
  -------------------------------------------------------------------------
  I[1/1] 'input_1'    :   f32[1,1,1,12], 48 Bytes, in activations buffer   
  O[1/1] 'output_1'   :   f32[1,1,1,3], 12 Bytes, in activations buffer    
  n_nodes             :   6                                                
  activations         :   512                                              
  weights             :   20748                                            
  macc                :   5345                                             
  hash                :   0x51b56419599eeb7c235f1e0702543b56               
  compile_datetime    :   May 19 2026 08:24:39                             
  -------------------------------------------------------------------------
  protocol            :   DLL Driver v2.0 - Direct Python binding          
  tools               :   ST.AI (legacy api) v2.2.0                        
  runtime lib         :   v10.2.0                                          
  capabilities        :   IO_ONLY, PER_LAYER, PER_LAYER_WITH_DATA          
  device.desc         :   x86_64, x86_64, Linux                            
  -------------------------------------------------------------------------
 
 NOTE: The duration and execution time per layer are just indications. They depend on the host machine's workload.

  
  ST.AI Profiling results v2.0 - "network"
  ------------------------------------------------------------
  nb sample(s)   :   9                                        
  duration       :   0.020 ms by sample (0.016/0.034/0.005)   
  macc           :   5345                                     
  ------------------------------------------------------------
  
  Statistic per tensor
  -------------------------------------------------------------------------------
  tensor   #   type[shape]:size        min     max     mean      std  name       
  -------------------------------------------------------------------------------
  I.0      9   f32[1,1,1,12]:48     -6.500   5.200    0.048    1.057  input_1    
  O.0      9   f32[1,1,1,3]:12      -1.000   1.000   -0.202    0.792  output_1   
  -------------------------------------------------------------------------------
 
Saving validation data...
 output directory: /home/lotfikh/rl_pid_tuner/export/stedgeai_out_12d_c860k
 creating /home/lotfikh/rl_pid_tuner/export/stedgeai_out_12d_c860k/network_val_io.npz
 m_outputs_1: (9, 3)/float64, min/max=[-1.000000, 1.000000], mean/std=[-0.202109, 0.792289], action
 c_outputs_1: (9, 1, 1, 3)/float32, min/max=[-1.000000, 1.000000], mean/std=[-0.202110, 0.792289], action

 
Computing the metrics...

 Accuracy report #1 for the generated HOST C-model
 ----------------------------------------------------------------------------------------------------
 notes: - ACC metric is not computed ("--classifier" option can be used to force it)
        - computed against the provided ground truth values
        - 9 samples (3 items per sample)

  acc=n.a. rmse=0.000000295 mae=0.000000134 l2r=0.000000361 mean=0.000000 std=0.000000 nse=1.000000 cos=1.000000 

 Accuracy report #1 for the reference model
 ----------------------------------------------------------------------------------------------------
 notes: - data type is different: r/float32 instead p/float64
        - p/float64 data are converted to np.float32
        - ACC metric is not computed ("--classifier" option can be used to force it)
        - computed against the provided ground truth values
        - 9 samples (3 items per sample)

  acc=n.a. rmse=0.000000000 mae=0.000000000 l2r=0.000000000 mean=0.000000 std=0.000000 nse=1.000000 cos=1.000000 

 Cross accuracy report #1 (reference vs C-model)
 ----------------------------------------------------------------------------------------------------
 notes: - data type is different: r/float64 instead p/float32
        - ACC metric is not computed ("--classifier" option can be used to force it)
        - the output of the reference model is used as ground truth/reference value
        - 9 samples (3 items per sample)

  acc=n.a. rmse=0.000000295 mae=0.000000134 l2r=0.000000361 mean=0.000000 std=0.000000 nse=1.000000 cos=1.000000 


Number of operations per c-layer
------- ------ --------------------------------- ------- -------------- 
c_id    m_id   name (type)                           #op           type 
------- ------ --------------------------------- ------- -------------- 
0       1      _0_Gemm_output_0 (Dense)              832   smul_f32_f32 
1       2      _1_Relu_output_0 (Nonlinearity)        64     op_f32_f32 
2       3      _2_Gemm_output_0 (Dense)            4,160   smul_f32_f32 
3       4      _3_Relu_output_0 (Nonlinearity)        64     op_f32_f32 
4       5      _4_Gemm_output_0 (Dense)              195   smul_f32_f32 
5       6      action (Nonlinearity)                  30     op_f32_f32 
------- ------ --------------------------------- ------- -------------- 
total                                              5,345 

Number of operation types
---------------- ------- ----------- 
operation type         #           % 
---------------- ------- ----------- 
smul_f32_f32       5,187       97.0% 
op_f32_f32           158        3.0% 

Complexity report (model)
------ ------------------ ------------------------- ------------------------- ------ -------- ------------------ 
m_id   name               c_macc                    c_rom                     c_id   c_dur    l2r (X-CROSS)      
------ ------------------ ------------------------- ------------------------- ------ -------- ------------------ 
1      node_0.weight      ||||              15.6%   ||||              16.0%   [0]     14.1%                      
3      node_2.weight      ||||||||||||||||  77.8%   ||||||||||||||||  80.2%   [2]     30.6%                      
5      node_4.weight      |                  3.6%   |                  3.8%   [4]     14.1%                      
2      _1_Relu_output_0   |                  1.2%   |                  0.0%   [1]     15.3%                      
4      _3_Relu_output_0   |                  1.2%   |                  0.0%   [3]     12.9%                      
6      action             |                  0.6%   |                  0.0%   [5]     12.9%   3.61185442e-07 *   
------ ------------------ ------------------------- ------------------------- ------ -------- ------------------ 
macc=5,345 weights=20,748 act=512 ram_io=0

Evaluation report (summary)
----------------------------------------------------------------------------------------------------------------------------------------------------
Output              acc    rmse          mae           l2r           mean       std        nse        cos        tensor                             
----------------------------------------------------------------------------------------------------------------------------------------------------
HOST c-model #1     n.a.   0.000000295   0.000000134   0.000000361   0.000000   0.000000   1.000000   1.000000   'action', 9 x f32(1x3), m_id=[6]   
original model #1   n.a.   0.000000000   0.000000000   0.000000000   0.000000   0.000000   1.000000   1.000000   'action', 9 x f32(1x3), m_id=[6]   
X-cross #1          n.a.   0.000000295   0.000000134   0.000000361   0.000000   0.000000   1.000000   1.000000   'action', 9 x f32(1x3), m_id=[6]   
----------------------------------------------------------------------------------------------------------------------------------------------------

 acc  : Accuracy (class, axis=-1)
 rmse : Root Mean Squared Error
 mae  : Mean Absolute Error
 l2r  : L2 relative error
 mean : Mean error
 std  : Standard deviation error
 nse  : Nash-Sutcliffe efficiency criteria, bigger is better, best=1, range=(-inf, 1]
 cos  : COsine Similarity, bigger is better, best=1, range=(0, 1]
